…
first dimension of list will be the views, instead of the standard of n-samples
You select 5 views from the 5 available, you could use get_view_names() to check which are available, the selected views are ['S2', 'S1', 'weather', 'VI', 'DEM']
first dimension of list will be the views, instead of the standard of n-samples
FeatureFusion(
  (views_encoder): ModuleDict(
    (S2): Generic_Encoder(
      (pre_encoder): RNNet(
        (rnn): LSTM(11, 64, num_layers=2, batch_first=True, dropout=0.2)
        (fc): Sequential(
          (0): Identity()
          (1): Identity()
        )
      )
      (linear_layer): Linear(in_features=64, out_features=64, bias=True)
      (bn_linear): BatchNorm1d(64, eps=1e-05, momentum=0.1, affine=False, track_running_stats=True)
    )
    (S1): Generic_Encoder(
      (pre_encoder): RNNet(
        (rnn): LSTM(2, 64, num_layers=2, batch_first=True, dropout=0.2)
        (fc): Sequential(
          (0): Identity()
          (1): Identity()
        )
      )
      (linear_layer): Linear(in_features=64, out_features=64, bias=True)
      (bn_linear): BatchNorm1d(64, eps=1e-05, momentum=0.1, affine=False, track_running_stats=True)
    )
    (weather): Generic_Encoder(
      (pre_encoder): RNNet(
        (rnn): LSTM(2, 64, num_layers=2, batch_first=True, dropout=0.2)
        (fc): Sequential(
          (0): Identity()
          (1): Identity()
        )
      )
      (linear_layer): Linear(in_features=64, out_features=64, bias=True)
      (bn_linear): BatchNorm1d(64, eps=1e-05, momentum=0.1, affine=False, track_running_stats=True)
    )
    (VI): Generic_Encoder(
      (pre_encoder): RNNet(
        (rnn): LSTM(1, 64, num_layers=2, batch_first=True, dropout=0.2)
        (fc): Sequential(
          (0): Identity()
          (1): Identity()
        )
      )
      (linear_layer): Linear(in_features=64, out_features=64, bias=True)
      (bn_linear): BatchNorm1d(64, eps=1e-05, momentum=0.1, affine=False, track_running_stats=True)
    )
    (DEM): Generic_Encoder(
      (pre_encoder): MLP(
        (layers): Sequential(
          (0): Sequential(
            (0): Linear(in_features=2, out_features=64, bias=True)
            (1): ReLU()
            (2): Identity()
            (3): Dropout(p=0.2, inplace=False)
          )
        )
      )
      (linear_layer): Linear(in_features=64, out_features=64, bias=True)
      (bn_linear): BatchNorm1d(64, eps=1e-05, momentum=0.1, affine=False, track_running_stats=True)
    )
  )
  (fusion_module): FusionModule(
    (concater_function): Concatenate_()
  )
  (predictive_model): Generic_Decoder(
    (pre_decoder): MLP(
      (layers): Sequential(
        (0): Sequential(
          (0): Linear(in_features=320, out_features=64, bias=True)
          (1): ReLU()
          (2): BatchNorm1d(64, eps=1e-05, momentum=0.1, affine=True, track_running_stats=True)
          (3): Dropout(p=0.2, inplace=False)
        )
      )
    )
    (linear_layer): Linear(in_features=64, out_features=2, bias=True)
    (bn_linear): BatchNorm1d(2, eps=1e-05, momentum=0.1, affine=False, track_running_stats=True)
  )
  (criteria): CrossEntropyLoss()
)
{'views_encoder': 225792, 'views_encoder_ext': {'S2': 57152, 'S2_ext': {'pre_encoder': 52992, 'pre_encoder_ext': {'rnn': 52992, 'rnn_ext': {}, 'fc': 0, 'fc_ext': {}, 'Total trainable param': 52992, 'Total non-trainable param': 0, 'Total params': 52992}, 'linear_layer': 4160, 'linear_layer_ext
…
